…
 show_boxes=True, show_conf=True, show_labels=True, simplify=True, single_cls=False, source=None, split=val, stream_buffer=False, task=detect, time=None, tracker=botsort.yaml, translate=0.2, val=True, verbose=True, vid_stride=1, visualize=False, warmup_bias_lr=0.1, warmup_epochs=3.0, warmup_momentum=0.8, weight_decay=0.0005, workers=8, workspace=None\n",
      "Overriding model.yaml nc=80 with nc=3\n",
      "\n",
      "                   from  n    params  module                                       arguments                     \n",
      "  0                  -1  1       928  ultralytics.nn.modules.conv.Conv             [3, 32, 3, 2]                 \n",
      "  1                  -1  1     18560  ultralytics.nn.modules.conv.Conv             [32, 64, 3, 2]                \n",
      "  2                  -1  1     29056  ultralytics.nn.modules.block.C2f             [64, 64, 1, True]             \n",
      "  3                  -1  1     73984  ultralytics.nn.modules.conv.Conv             [64, 128, 3, 2]               \n",
      "  4                  -1  2    197632  ultralytics.nn.modules.block.C2f             [128, 128, 2, True]           \n",
      "  5                  -1  1    295424  ultralytics.nn.modules.conv.Conv             [128, 256, 3, 2]              \n",
      "  6                  -1  2    788480  ultralytics.nn.modules.block.C2f             [256, 256, 2, True]           \n",
      "  7                  -1  1   1180672  ultralytics.nn.modules.conv.Conv             [256, 512, 3, 2]              \n",
      "  8                  -1  1   1838080  ultralytics.nn.modules.block.C2f             [512, 512, 1, True]           \n",
      "  9                  -1  1    656896  ultralytics.nn.modules.block.SPPF            [512, 512, 5]                 \n",
      " 10                  -1  1         0  torch.nn.modules.upsampling.Upsample         [None, 2, 'nearest']          \n",
      " 11             [-1, 6]  1         0  ultralytics.nn.modules.conv.Concat           [1]                           \n",
      " 12                  -1  1    591360  ultralytics.nn.modules.block.C2f             [768, 256, 1]                 \n",
      " 13                  -1  1         0  torch.nn.modules.upsampling.Upsample         [None, 2, 'nearest']          \n",
      " 14             [-1, 4]  1         0  ultralytics.nn.modules.conv.Concat           [1]                           \n",
      " 15                  -1  1    148224  ultralytics.nn.modules.block.C2f             [384, 128, 1]                 \n",
      " 16                  -1  1    147712  ultralytics.nn.modules.conv.Conv             [128, 128, 3, 2]              \n",
      " 17            [-1, 12]  1         0  ultralytics.nn.modules.conv.Concat           [1]                           \n",
      " 18                  -1  1    493056  ultralytics.nn.modules.block.C2f             [384, 256, 1]                 \n",
      " 19                  -1  1    590336  ultralytics.nn.modules.conv.Conv             [256, 256, 3, 2]              \n",
      " 20             [-1, 9]  1         0  ultralytics.nn.modules.conv.Concat           [1]                           \n",
      " 21                  -1  1   1969152  ultralytics.nn.modules.block.C2f             [768, 512, 1]                 \n",
      " 22        [15, 18, 21]  1   2117209  ultralytics.nn.modules.head.Detect           [3, [128, 256, 512]]          \n",
      "Model summary: 129 layers, 11,136,761 parameters, 11,136,745 gradients, 28.7 GFLOPs\n",
      "\n",
      "Transferred 349/355 items from pretrained weights\n"
     ]
    },
    {
     "name": "stderr",
     "output_type": "stream",
     "text": [
      "/usr/local/lib/python3.8/dist-packages/torch/nn/functional.py:718: UserWarning: Named tensors and all their associated APIs are an experimental feature and subject to change. Please do not use them for anything important until they are released as stable. (Triggered internally at  /pytorch/c10/core/TensorImpl.h:1156.)\n",
…
